Model: 
	- 3-Phase Basic Conv-Pool
	- active padding
	- dropout 
	- early-stopping

Layer (type)                 Output Shape              Param #   
=================================================================
conv2d_1 (Conv2D)            (None, 48, 48, 32)        320       
_________________________________________________________________
conv2d_2 (Conv2D)            (None, 48, 48, 32)        9248      
_________________________________________________________________
conv2d_3 (Conv2D)            (None, 48, 48, 32)        9248      
_________________________________________________________________
max_pooling2d_1 (MaxPooling2 (None, 24, 24, 32)        0         
_________________________________________________________________
conv2d_4 (Conv2D)            (None, 24, 24, 64)        18496     
_________________________________________________________________
conv2d_5 (Conv2D)            (None, 24, 24, 64)        36928     
_________________________________________________________________
conv2d_6 (Conv2D)            (None, 24, 24, 64)        36928     
_________________________________________________________________
max_pooling2d_2 (MaxPooling2 (None, 12, 12, 64)        0         
_________________________________________________________________
conv2d_7 (Conv2D)            (None, 12, 12, 128)       73856     
_________________________________________________________________
conv2d_8 (Conv2D)            (None, 12, 12, 128)       147584    
_________________________________________________________________
conv2d_9 (Conv2D)            (None, 12, 12, 128)       147584    
_________________________________________________________________
max_pooling2d_3 (MaxPooling2 (None, 6, 6, 128)         0         
_________________________________________________________________
flatten_1 (Flatten)          (None, 4608)              0         
_________________________________________________________________
dense_1 (Dense)              (None, 64)                294976    
_________________________________________________________________
dropout_1 (Dropout)          (None, 64)                0         
_________________________________________________________________
dense_2 (Dense)              (None, 64)                4160      
_________________________________________________________________
dropout_2 (Dropout)          (None, 64)                0         
_________________________________________________________________
dense_3 (Dense)              (None, 7)                 455       
=================================================================
Total params: 779,783
Trainable params: 779,783
Non-trainable params: 0

Epoch 00024: early stopping
Done Training: 
Final Training Accuracy:  0.5879279458598726
Final Validation Accuracy:  0.5344247068038984
Overfit Ratio:  0.9089969452332749
3589/3589 [==============================] - 1s 302us/step
Evaluation Loss:  1.320550417993088
…
